backend/models/route_prediction_model.pt (torch, 240826 bytes, 14 tensors)

lstm.weight_ih_l0 f4 [256, 4]
00000000: 3402 da3c ce97 fc3b 82c3 003d e9d5 b4bd
00000010: dcd8 7abd 9994 d0bd 6004 c03d dd7e e4bc
00000020: 6fd2 e73d 3ce4 ab3d c701 1bbd 2f3d 22bc
00000030: 5ca5 543d bec7 a2bd 5ad3 573d 2f5f ca3d
00000040: 6985 26bd eb8d 0b3e 6b87 be3d 9553 2c3d
00000050: 2bad 78bc 2ad5 eabc 68c6 fabc e9e4 143c
00000060: 94b1 663d b78d fe3d aad4 c73d 29a5 96bd
00000070: aa0f 88bc 54ab a33d 07fc 0c3c ba40 f33c
00000080: cd21 c53d 8c9d 96bc 2889 01bd c431 09bc
00000090: 42e3 80bd fffd 573c 2643 b83d 84ad fb3c
000000a0: 3a1f 0c3e 6e16 5c3d 7593 883d 2735 093e
000000b0: fdc8 46bc a550 a83b 6ea0 a13c e443 d23d
000000c0: 51fb 343d a447 a8bd fbed f43b cb49 853d
000000d0: b89e 3fbc 2815 ac3c dc99 d23d 5cec ec3c
000000e0: c7d2 b1bd f0c2 aabd 7678 3c3d 8ed3 073e
000000f0: ebed 013d 3a27 89bd 8c7c 0e3d 7eed ffb9
00000100: 6bb6 db3d 02e5 123d feca 913c 0487 71ba
00000110: 1d99 db3d 5e62 4fbd d0e8 853d ec59 223e
00000120: 37e8 59bd e705 6a3c 060b da3c c3ab 99bd
00000130: 9cfe 4ebd 3431 ab3d 8ee8 b73d bffd 803d
00000140: 5c95 5f3d ef42 393d 6d7d 81bd 15e3 c53d
00000150: ec05 9bbd ae01 8dbd 772d 6a3c 58cc 7f3d
00000160: b4d2 a73c b4e2 7c3c d172 6ebd 4015 b33d
00000170: bbf6 7abd 3124 cc3d 4fea 33bd 377b d13d
00000180: 12b8 653c 7e22 9ebc cf84 723d 3011 653b
00000190: 4096 57bb 8145 103e 1253 d03d 58f7 9ebd
000001a0: a0aa a83d 0a2f bdbd a0f3 c73d cc56 4fbd
000001b0: feef 48bd 08de 103c d0c9 093b 45fb 0db8
000001c0: d7b8 8ebd c2e0 993c 76d8 213d 7461 1f3e
000001d0: c327 23bd d0b6 673d 043e e2bc e309 08be
000001e0: 6b43 84bd 0477 11be 3254 95bd 5b62 9ebc
000001f0: c7dc a1bd ad65 983d f084 d1bc fc83 a2bd
00000200: 3773 8ebd 24f8 913d 559f 5f3d 3fc3 933d
00000210: e0c3 ab3c ddc5 543d bfe4 1fbd 4fab 483d
00000220: 63e0 b43d 6e89 8bbd 06d1 00bd a565 9f3c
00000230: b996 7b3d 0e7a 89bd 15a9 573c 2351 933d
00000240: 83d9 9fbd 8210 39bd 6505 963d d24a 2f3d
00000250: 04f7 743d 8b75 8e3c 45f9 e03c 747c da3d
00000260: 09ef 2f3d 443b 5ebd 1fec be3d cbae 053e
00000270: 0852 e13d 0cb7 ee3d 40bd 933d 704e 173d
00000280: 6c65 023d b83e 913d b880 173d b2f3 eb3c
00000290: 6ba6 d0bc 0dfd a9bb 85b6 563d e7b9 b23b
000002a0: 28f5 453d ead7 1d3d d765 49bd 7ee5 02bd
000002b0: 7bf2 4abd 0715 613d ae5b 94bc 77a4 7bbd
000002c0: b00d 16bd effe b03d b7f0 4abd e512 0dbe
000002d0: 3c30 93bc 94c3 72bc a879 d83d 23b1 b1bd
000002e0: a302 05bd f112 f83d 30a7 17bd 2f00 9fbc
000002f0: a246 92bd dd87 8abc f65d 513d 0bd0 0e3d
00000300: 5e2e 0f3e 7c52 d83c 8073 fd3d c926 933c
00000310: 538d ef3d 53e5 ab3d 0828 723d 0c0f 253e
00000320: ef69 843d 422a 2d3c 182f bbbc a67d 193e
00000330: 6a2b a33d 810a 8a3d edb2 f9bc 025d 053e
00000340: 3e2d 8cbd e582 8ebc 46cd a1bb 0b93 16be
00000350: 82cd 48bd c278 013e 9ffc 6f3d 387b 2bbd
00000360: 143e 21bd 00bc 043d 68e4 fb3c ed4e 983d
00000370: 02c1 f03d b93f 003e b7fd 1bbc 2bb3 193e
00000380: 02c9 fcbc 2282 023d 25e1 773d dbfa 0c3c
00000390: f34c d53d 7e7f f3bc 5d4b 443c 7eb6 653d
000003a0: da0d 873c f25f b13c 3b82 893c 66c2 fe3d
000003b0: 0a49 b23c 6211 64bd 58d0 ce3d 85ca 9c3d
000003c0: 0400 e53d 3a93 7fbd 27ea a9bd 5cf0 b4bd
000003d0: 0c88 1a3e 22b1 1d3e f1bd e23d cd61 143e
000003e0: 1bb6 8abd f93c 8dbd 4b51 863d f5a5 6dbd
000003f0: f29b d03d 8fed 103e 05d9 eebc 9565 043d
0.026612379 0.007708526 0.03143645 -0.088298626 -0.06124197 -0.10184593 0.093758345 -0.027892524
0.11319434 0.083931416 -0.037843492 -0.009902283 0.05191551 -0.07948254 0.052691795 0.09881436
-0.040654574 0.13628356 0.09303173 0.042071898 -0.015178005 -0.028666098 -0.030612186 0.00908778
0.056321695 0.12429374 0.09757359 -0.073557205 -0.016609032 0.079916626 0.00860501 0.02969395
0.096255876 -0.018385671 -0.031624943 -0.008373681 -0.06293346 0.013183116 0.089971825 0.030722387
0.13683787 0.053732328 0.0666875 0.13399182 -0.01213288 0.0051365667 0.01972982 0.10266855
0.044184987 -0.08216789 0.0074746585 0.065082155 -0.011695556 0.021006182 0.102832526 0.028921299
-0.08682781 -0.083379626 0.046013318 0.13264295 0.031721037 -0.06696935 0.034786746 -0.00048814336
0.10728153 0.03586293 0.01779699 -0.00092135393 0.107225634 -0.05063092 0.06538546 0.15854615
-0.053199973 0.014283634 0.026616585 -0.07503464 -0.050535783 0.08358994 0.08979903 0.06298398
0.0545858 0.04522985 -0.06322751 0.09662453 -0.07569489 -0.06885086 0.014293066 0.062450737
0.020486213 0.01543491 -0.058214966 0.087442875 -0.061270457 0.099678405 -0.043924626 0.102285795
0.014020937 -0.019303557 0.059208687 0.0034952872 -0.0032895952 0.14089014 0.101720944 -0.07762021
0.08235669 -0.092374876 0.09763265 -0.050619885 -0.049057 0.008841999 0.002102483 -3.3851033e-05
-0.06968849 0.01878393 0.039513074 0.15564519 -0.03983284 0.056570828 -0.027617462 -0.13285021
-0.064581715 -0.14205557 -0.072914496 -0.019334009 -0.07903438 0.07441268 -0.025576085 -0.0793533
-0.06955569 0.07127407 0.05459531 0.072149746 0.020967424 0.05194651 -0.03903651 0.048991498
0.08831861 -0.06813322 -0.03144934 0.019457648 0.061423037 -0.06712733 0.013162871 0.0719321
-0.07805159 -0.04518176 0.07325248 0.042795964 0.059805885 0.017390033 0.027462611 0.10668269
0.04295257 -0.05425574 0.0932238 0.1305496 0.11001974 0.11656007 0.07213831 0.03694004
0.031835005 0.07092041 0.03698799 0.028802726 -0.02546998 -0.0051876367 0.052420158 0.00545429
0.048329502 0.03853599 -0.049169388 -0.031957142 -0.049547654 0.054951694 -0.018110123 -0.061436143
-0.036634147 0.08642375 -0.04954597 -0.13776739 -0.017967336 -0.014817137 0.10570079 -0.08676364
-0.032473218 0.12112988 -0.037024677 -0.019409267 -0.071423784 -0.016910488 0.051115 0.034866374
0.13982531 0.02640652 0.123755455 0.01796283 0.11696877 0.083933495 0.059120208 0.16119021
0.06465518 0.010569157 -0.022849604 0.14989337 0.07967265 0.06740285 -0.030480826 0.13023761
-0.06844567 -0.0173964 -0.0049378006 -0.1470453 -0.049024113 0.12643722 0.058590528 -0.041865557
-0.039365843 0.032405853 0.030748561 0.07436929 0.11755563 0.12524308 -0.00952094 0.15009753
-0.030857567 0.031862386 0.06051745 0.0086047305 0.104150675 -0.029723879 0.011980859 0.05608224
0.016486097 0.021652196 0.016785732 0.12439422 0.021763343 -0.05568064 0.10098332 0.07655815
0.111816436 -0.062396266 -0.08296614 -0.088349074 0.1509096 0.15399602 0.11071385 0.14490433
-0.06773015 -0.06896395 0.06558474 -0.058019597 0.10185994 0.14153121 -0.029156217 0.03232344

lstm.weight_hh_l0 f4 [256, 64]
00000000: bfae 9fbd e3f2 c7bd f919 febc 6538 103e
00000010: ed1f 1dbb 302f 193e d221 f1bc 7677 2abd
00000020: 2f5f 4abb 1ff3 8cbd a7bb 583c cd21 413c
00000030: 5c94 0dbd 4d79 0fbd ac4c 043e 418e 873d
00000040: 2409 f6bb eb8d e43b 8ede 993d c048 12be
00000050: 08d1 113e 1ca9 013e 81b0 773b 8be8 553c
00000060: 1077 f337 8be1 92bd 1910 5f3d 29b5 383d
00000070: 66c6 d83c 966b e4bd eb04 f9bd db0b 423d
00000080: 52ec babb d810 e4bb 6a9b 953d 4350 613b
00000090: d46c bb3d 73d3 9b3d a798 8dbc 7897 d3ba
000000a0: 42da 23bd 4909 34bc 1638 02bd be87 86bd
000000b0: 5ded 0f3e a3cb e0bc a96a 1c3e 695a 083e
000000c0: ca3e c4bd d77a 803d e6ad ca3d 2c6a d83c
000000d0: f6ce 8e3d 6ca0 4d3b 95f9 adbc 3000 f93c
000000e0: a43d dcbc 5edd 65bd f4a9 50bc 3848 a2bd
000000f0: 55d8 e23c 30da bfbd d573 933d 4f7e 113d
00000100: 3e22 27bd 1b74 bb3d 4d1b 42bd 2cc0 2e3d
00000110: 16d8 c3bd 9334 ce3d 5c5f 693d 0dfe 363d
00000120: b2c4 853d 410a 553d bd72 6fbb 6f48 59bd
00000130: bc7d 6a3a 7c98 023e b3f9 8bbd 7d39 10be
00000140: ce07 ccbd d2c1 e8bd ab26 0cbe 37b0 29bd
00000150: c7da 9ebd 6e55 983d 0c17 923d 6847 7dbd
00000160: ffdb c2bc fcd3 e23b b981 97bc 7462 b43d
00000170: 2d30 babb 8290 b4bd 12c7 893d c6da 6cbb
00000180: 4eab c3bd 39ea 733c 1adb 863d 6781 163d
00000190: aa79 40bd b45c ab3d a815 b33c 5a0f da3d
000001a0: f35d 593d 8816 ac3c ed96 a43d 0549 a3bc
000001b0: 6754 4dbd e297 e53b 3bf4 0e3d e81b f13d
000001c0: 3262 a63d cba0 093e e0ea 423c 78de d73c
000001d0: 07c4 85bc 78ac 203d 7b0c ca3d 5b1c 1d3e
000001e0: c39a dd3c 3de7 ad3c b323 ef3c 2ded 47bd
000001f0: aacf 9bbc 5484 183d b9ec 903d 3b58 bfbc
00000200: c287 813c 0177 a1bd e70e 8fbd fd2f 44bd
00000210: 80f4 213d 8090 90bd 8a1e edbd f8ef 6fbc
00000220: 1708 cebd 7282 2d3d ae21 8b3d b13d 493d
00000230: b6b2 3f3c 6aa0 3f3d 1dfa 923d 9302 45bd
00000240: 09cc 8a3d b07f 8bbc 1945 d6bd 49ba f0bd
00000250: 34ad 21bd a687 563d a5b5 8bbd 3655 8ebd
00000260: c63e 15be 2367 d43d 29e7 9cbc 615a d8bd
00000270: c721 52bd e81c aa3d 0d0e 2dbd 3de5 5a3d
00000280: 6417 1cbe 4945 943d 30a1 e33d a2e5 9fbd
00000290: 018f a63d d25d 383c 2c5d 35bd ee45 af3d
000002a0: ea88 8bbd e859 02be da2d 14bc cac5 263d
000002b0: ae1f 1a3e 3601 343d 0123 5f3c 2ac0 2c3d
000002c0: 67fb bd3d 71a6 373c f91b 043d 68d0 e43d
000002d0: d11f 2e3d 55f0 dcbd 2c5a f2bd 7e9c 9f3d
000002e0: be63 34bc 5463 e23d 8452 333a be14 563d
000002f0: 1482 cdbc 0010 73bd 916d 893c d50a 47bc
00000300: a1fb 1e3e 4f72 aa3d 2cf9 81bd 51d6 993c
00000310: e206 a33d 2540 243e ed64 27bc c820 d23c
00000320: 0e75 c5bd 76d8 023e c121 4abc 2b68 19be
00000330: 8319 1f3e e244 c33d d33d 62bd aadc 0e3d
00000340: d16a 05be 1235 b23d 765e 8a3d 3c53 0dbe
00000350: d6a0 193c eaca 803d 0dae f7bd 412f df3d
00000360: d443 86bd e35b 0a3e f923 e93c 9628 95bd
00000370: 253d bdbd 14dc 97bc 7f6f 863c 8042 45bd
00000380: 00a9 323b 6f74 083e 59d6 afbc 170f 313d
00000390: 2ae5 52bd 0804 3fbc 0321 793d 8d87 2f3d
000003a0: 58d7 9b3d 3118 babc 7ab5 b8bd bd1c d0ba
000003b0: 4f8f f7bb 96d7 fabc 0fca 033e 79a0 223e
000003c0: d22a 4abd b6dd c1bc e244 51bc 9e58 cf3d
000003d0: b8ae 173d c4e8 f5bd d06b 2bbd e6a0 c53c
000003e0: b2c7 0d3e 64d9 aabc c907 57bd 49a4 06bd
000003f0: 46f6 7b3d 2e52 dcbd df32 293d 6d67 183d
-0.07797002 -0.09763124 -0.031018244 0.14084013 -0.0023975328 0.14959407 -0.029435072 -0.041617833
-0.0030879488 -0.06882309 0.013228334 0.011787844 -0.034565315 -0.03502779 0.12919873 0.0661893
-0.007508414 0.0069749258 0.07513152 -0.14285564 0.14239895 0.12662166 0.0037794414 0.013055931
2.90233e-05 -0.07171925 0.05445871 0.045094643 0.026461791 -0.11153333 -0.12159141 0.047374588
-0.005704441 -0.0069600157 0.073050335 0.0034380115 0.09151617 0.0760869 -0.017284704 -0.0016143164
-0.04000307 -0.010988542 -0.03179177 -0.065688595 0.1405539 -0.027440852 0.15275063 0.13315739
-0.095822886 0.0627343 0.0989645 0.026417814 0.069730684 0.0031376136 -0.021237174 0.030395597
-0.026884861 -0.056119315 -0.0127358325 -0.07923931 0.027691046 -0.09367788 0.071998276 0.035520848
-0.04080414 0.09153005 -0.047389317 0.042663738 -0.095626995 0.100686215 0.056975707 0.044675875
0.06531657 0.052011732 -0.0036536895 -0.053047594 0.00089451275 0.1275348 -0.06834736 -0.1408443
-0.09962426 -0.11365093 -0.13686626 -0.041427817 -0.07756572 0.074381694 0.07133302 -0.061835676
-0.023786543 0.006922243 -0.018494474 0.08807841 -0.0056820125 -0.08816625 0.06727423 -0.0036141141
-0.09554158 0.014887386 0.06584759 0.0367445 -0.046991028 0.08367291 0.021860912 0.10647459
0.053068113 0.021006837 0.08036599 -0.01993228 -0.05012932 0.007006631 0.034900885 0.11772901
0.08124198 0.13440244 0.011896819 0.026351199 -0.016328825 0.03922698 0.09865662 0.15342848
0.027051335 0.021228427 0.029191827 -0.048810173 -0.01901992 0.037235573 0.07076401 -0.023357501
0.015811805 -0.07884026 -0.06985264 -0.047897328 0.039539814 -0.07058811 -0.115780905 -0.014644615
-0.10060137 0.04236073 0.06793533 0.0491311 0.011700323 0.046783842 0.071766116 -0.048098158
0.06777198 -0.01702866 -0.10462398 -0.11754281 -0.03947182 0.05237546 -0.06821755 -0.069498464
-0.14574727 0.10371234 -0.019153195 -0.105641134 -0.051301744 0.08306295 -0.042249728 0.053441275
-0.15243298 0.072397776 0.111147285 -0.07807471 0.081327446 0.011252837 -0.04427831 0.0855826
-0.06813224 -0.12729609 -0.009044135 0.04071597 0.15051147 0.043946467 0.013619185 0.04217545
0.09276467 0.011209116 0.03225324 0.11172563 0.04251081 -0.10788027 -0.11833605 0.077935204
-0.0110101085 0.110541016 0.0006840604 0.052265875 -0.02508644 -0.05934143 0.016775878 -0.012148579
0.15525676 0.08322584 -0.06346354 0.018778952 0.07960297 0.16040094 -0.010216934 0.025650397
-0.09641467 0.12777886 -0.012337149 -0.14981143 0.15537076 0.09534623 -0.05523474 0.03487841
-0.13029028 0.087015286 0.06756298 -0.13801283 0.009376725 0.06288703 -0.120937444 0.10897685
-0.06555906 0.13511615 0.028459536 -0.07283132 -0.09240178 -0.018537559 0.016410587 -0.048159122
0.0027261376 0.13325666 -0.021464514 0.04322728 -0.05148808 -0.011658676 0.060822498 0.04285388
0.07609433 -0.022716613 -0.09018989 -0.0015877705 -0.0075549255 -0.030620378 0.12870048 0.15881528
-0.049357243 -0.02366529 -0.012772771 0.10124324 0.03703186 -0.12007287 -0.041850865 0.024124574
0.13845709 -0.020855613 -0.05249766 -0.03287152 0.06151416 -0.10757862 0.04130828 0.03720801

lstm.bias_ih_l0 f4 [256]
00000000: b722 a43d a8e4 dc3a 86e3 043e 0ade de3c
00000010: 72c4 263c ad8f 8cba d763 cf3d a6d8 8bbd
00000020: 8c87 c73c 77e2 003e a472 073e d438 66bd
00000030: 209c 9b3c d1a8 b23d 53c8 0e3d aa81 81bd
00000040: e02f b13d 6493 143e fa3c 1a3e 29c3 19bc
00000050: de8b 213d 7cd4 c3bc b907 123d 42c4 1bbd
00000060: 0f42 8f3c 0e57 fc3d 22e2 413d 0f17 a6bc
00000070: ce8d 1bbd 15e0 203d d3ec 84bd 5a0d 2fbb
00000080: db5c 083d 59f0 ea3d f6f1 b6bb a736 7dbd
00000090: 4d0a 84bc 6fde 0e3d 93ca 063e afbf 093e
000000a0: 6f2e 433d 0ec9 503d 3efc 3f3d 4edc 8c3d
000000b0: 19c5 1dbd 702b 72bc 5d0e 71bc 03ba ac3d
000000c0: b51f c73d ae6d b7bd 55e0 a93d ae6f d23c
000000d0: 58fa 05bd 59a5 bfbd bed6 85bc ff35 55bd
000000e0: 143c 9dbc 21c7 88bc 9f4a 98bd 3b00 20bd
000000f0: f34b 453d 85a8 7fbd ea26 2c3d 4857 a43b
00000100: 9948 a33c b0dd cb3d 727b 6e3d e134 f33d
00000110: f289 af3d 8f83 bb3d f323 aebd 5e39 2fbd
00000120: 280c df3d ccf4 0abc d3ce 23bc d145 083d
00000130: e162 f2bc 4013 083e 2f53 a8bc 4fa5 adbd
00000140: 2ce9 9e3c 23a3 6fbd fe51 e23d 8acb 93bd
00000150: 7751 04bd eb45 493d 3881 9dbd 7f7f ba3d
00000160: 017d aa3c dbcc a9bb 1199 963d 6bdc 6abd
00000170: 5842 f13c ae04 fabd 6094 a23d 68d1 133d
00000180: 5ebd 403d 3387 53bd 5d13 43bc b993 3b3d
00000190: ca45 edbd 51f7 7ebd 3f84 65bd 7c31 05bc
000001a0: f956 1e3c 52ab da3c b207 0e3d 738b 673d
000001b0: 4d05 edbb 9c7e 093d f89f 50bd e0a4 53ba
000001c0: ce0a d23d 500f b8bd c3f6 a33d ac5d 103e
000001d0: dca7 863d f655 acba c4f6 95bd 9db5 783c
000001e0: 9000 8dbd 5e59 b9bd 2ca5 8e3d 28ec cabc
000001f0: a4cb e73d 3d27 713d a24d d73d 0436 0b3e
00000200: f7e8 383c b5f7 1cbd 4ad3 56bc e798 053e
00000210: d92e 0f3b 81df 53bc 10c9 d8bd 583b b83d
00000220: 05a5 13be 15fd bc3d 0a61 d03d 5f81 adbd
00000230: 0156 253d 1042 e83d 3374 093e 6f95 babc
00000240: eea5 5fbd da2b e9bc c04a e3bd 78a2 0ebe
00000250: 200a c23d cbb3 973d e877 5c3c d282 733d
00000260: 30fd 3ebd 41cb c83d 376b d7bd def1 993d
00000270: 4044 1fbd 8a3c a53d 7493 163d 916c 50bd
00000280: 31a1 fabd 187b d7ba b9eb 0f3e fac5 5d3d
00000290: 36b8 973c a86a 8e3d e33e 06be 3328 953d
000002a0: cc68 fa3d 93fc 8dbd 9cd3 1bbe f3fc 0839
000002b0: c904 773d 5946 0dbc 64a2 133e fae1 693d
000002c0: a924 6a3d b7d3 b33c ef50 b63d 85b9 1a3e
000002d0: 8364 a23d 24fe f9bd 7b68 eabd 736f 1e3d
000002e0: 8844 b2bd 51f6 853d eed8 153e d161 df3d
000002f0: 23ea 293d 3500 6bbd ee12 2f3d 4c7b 0abe
00000300: 6b53 b83d 79b9 bebd d15b 49bd f3f2 2dbd
00000310: 67c8 dc3d 2d65 a03d 9981 ea3d 2f4d c63d
00000320: b8a7 243d 6812 0d3e 82c5 52bb 73bd 0f3d
00000330: 9aca debc 1579 1bbd 6a7a fcba 4d6d 123e
00000340: 2bf1 9e3c 970b 453d 7e53 b83d 1f38 a13a
00000350: 6bb3 863c 675e cdbd 37a5 153e 9be3 a53d
00000360: fd17 84bd 1b3f 143d 6155 aebd b750 73bd
00000370: 5239 dc3d 0f05 c7bd 0c2a 3dbd b532 9b3c
00000380: 8f93 8cbd 5bcc a43d 4c34 adbd 0eb7 acbd
00000390: 89d4 40bd 1e4f 5c3c 5b2b 283e 37d4 a9bd
000003a0: 5624 0b39 161b d03d 45d9 5d3b c1fc d33c
000003b0: 5f77 423d 67b1 81bd fc4d f53d 6a69 973a
000003c0: ae10 d9bd e6e2 1d3e 5982 3fbd bec1 8dbc
000003d0: 0153 b03d 9e22 9d3c 1b58 e93d f420 423d
000003e0: 610a a13b 186a 4fbd 5338 fb3d 44be 55bd
000003f0: 5ba0 b6bb c0ef db3d 6b6b 813d f893 ac3d
0.08014434 0.0016852813 0.12977418 0.027205486 0.010178672 -0.0010723971 0.10126465 -0.06828432
0.024356626 0.1258639 0.13227326 -0.05620654 0.018995345 0.087236054 0.034859013 -0.063235596
0.086517096 0.1450935 0.15062323 -0.009384909 0.03944003 -0.023905031 0.035651896 -0.038028963
0.017487554 0.12321292 0.047334798 -0.020274667 -0.037977032 0.0392762 -0.06490483 -0.002671084
0.03329168 0.11471624 -0.005583043 -0.0618197 -0.016118193 0.034880098 0.13163213 0.13452028
0.047651704 0.05097299 0.046871416 0.06877957 -0.038518045 -0.014780864 -0.014712897 0.084339164
0.097228445 -0.089564666 0.08294741 0.025688019 -0.03270945 -0.093577094 -0.016337749 -0.052053448
-0.019193687 -0.016696515 -0.07436108 -0.03906272 0.048168134 -0.062416572 0.0420293 0.0050152875
0.019932078 0.09954393 0.058223195 0.1187532 0.08571233 0.09155952 -0.085029505 -0.04277932
0.108909905 -0.008481216 -0.009998041 0.033269707 -0.029588165 0.13288593 -0.020547478 -0.08478796
0.019398294 -0.05850519 0.11050795 -0.07216556 -0.032304253 0.049138945 -0.07690662 0.09106349
0.02081156 -0.0051818914 0.07353414 -0.057339113 0.02945058 -0.12207924 0.079384565 0.036088377
0.047055595 -0.051642608 -0.011906472 0.045795176 -0.11585577 -0.062247578 -0.056034323 -0.008129474
0.009664291 0.02669302 0.034675308 0.056529474 -0.007233298 0.03356801 -0.050933808 -0.00080735795
0.10255967 -0.08987296 0.080060504 0.14098233 0.065749854 -0.0013148177 -0.073224574 0.015180019
-0.06884873 -0.090502486 0.06965098 -0.024770811 0.11318138 0.05887531 0.10512854 0.13594824
0.011286012 -0.03832217 -0.013111899 0.13046609 0.0021847992 -0.012931705 -0.10585225 0.08995694
-0.14418419 0.09227959 0.10174759 -0.08471941 0.040365223 0.113407254 0.13423233 -0.022776334
-0.054601602 -0.028463293 -0.11098242 -0.13929164 0.094745874 0.0740734 0.013456322 0.05945093
-0.046628177 0.098043926 -0.105184965 0.07516836 -0.038883448 0.080681875 0.036761716 -0.050884787
-0.12237776 -0.0016439883 0.14054765 0.054143883 0.018520456 0.06953937 -0.13109927 0.07283058
0.1222702 -0.0693294 -0.15217441 0.00013064202 0.060307298 -0.008622729 0.14417416 0.057100274
0.057163868 0.02195154 0.089021556 0.15109833 0.07929327 -0.122066766 -0.11445709 0.038680505
-0.087044775 0.06541122 0.14633533 0.10907329 0.041483056 -0.057373244 0.042742662 -0.13523597
0.09000286 -0.0931272 -0.04915983 -0.042468023 0.10780411 0.07831798 0.114505 0.0968269
0.04019901 0.13776553 -0.003216118 0.035092782 -0.027196217 -0.03795727 -0.0019262556 0.14299507
0.019402107 0.048106756 0.090003 0.0012300051 0.016442975 -0.100277714 0.14613806 0.08100053
-0.06449888 0.036192995 -0.085123785 -0.059403148 0.107531205 -0.09717762 -0.046182677 0.018945077
-0.06864082 0.0804679 -0.084572405 -0.084333524 -0.04707769 0.013446597 0.16422789 -0.0829243
0.00013269609 0.10161416 0.0033851427 0.025877358 0.047477122 -0.06332665 0.11977765 0.0011551802
-0.105988845 0.15418586 -0.04675517 -0.017304298 0.08609582 0.019181546 0.11393758 0.047394708
0.0049145673 -0.05063829 0.12266602 -0.052183405 -0.005573315 0.10739088 0.063193165 0.0842666

lstm.bias_hh_l0 f4 [256]
00000000: e0d7 8a3d 9fbb 5e3d b910 673c 56c1 9c3b
00000010: c1ed 0a3e 4ccc 963d 2007 963d 1158 a03c
00000020: 2de8 843d d1d5 2ebc bafc b33d 0cb1 53bd
00000030: c8c0 a1bb 9484 a03d 993d 6ebd 5adc 233e
00000040: 95b1 03bd f0b5 9d3d cc53 863d 52a8 dc3d
00000050: d66f afbd c2ba 1dbc 4435 bb3d dd6d 8e3d
00000060: 1ea6 943c d230 d33d 98ea 773b d576 98bd
00000070: edff 4a3d 475e 3f3d d27e 7b3c e48f a03d
00000080: 51e4 cabc 358b b3bd 806f d2bc b404 153e
00000090: 4b88 ab3d ec6d 503d 1449 183e 82f5 683d
000000a0: 61d5 093e c848 863d da63 3c3d 8e3a b1ba
000000b0: dd4e 3abd dd3f c83d 0376 ed3d 1c5f 32bd
000000c0: 3746 b73d c27c c03d 060c 9dbd d046 a3bd
000000d0: 2df8 e1bd 143a 89bc 6051 bf3d 15e7 d83d
000000e0: c807 143c 438b 113e a574 01bd f782 8abd
000000f0: f7fd 1a3e d903 ef3d fe6e 48bd dbd3 93bd
00000100: 1b87 c13d bed8 a1bd 2be6 c4bc c8d1 103e
00000110: 5945 8b3d 5e4d 1bbc c588 e33d 2262 09bd
00000120: a3c9 aa3d 7504 9a3d 89f0 24bd 7df1 bf3d
00000130: 1387 073e 78ab 0d3e 972d 773d 2d9f 9b3d
00000140: 0ca0 f13d b554 a2bd 4629 163e 7dc8 7f3d
00000150: 7231 d9bd 3922 933c 15da 173e f366 44bd
00000160: caf8 37bd 64a3 013e 1413 d3bc 7503 d2bb
00000170: 5794 aa3d b75e bbba b195 8b3d 96bd 3fbd
00000180: c6d0 b9bc 398b ce3d cafc 57bd 2177 06bd
00000190: ca4e edbd f3d6 f43d b1b3 8ebd 7a04 62bc
000001a0: 3cf9 bb3d e627 aa3d 92b3 f33d 4a8c d03d
000001b0: 76de a03d 307a 57bd 644b a33d b57d abbd
000001c0: c241 8abd 5af2 d33d 7024 ee3c 0b6e 15bd
000001d0: e13c d2bd c640 6bbd cc8d 8a3d 8c06 83bc
000001e0: 9c98 533d 761d c2bd c4ee bebc 424a b33d
000001f0: 3e28 9fbd 0f8b 813d 0ada 87bd 6e6a f83d
00000200: 1ed9 f53c 8a87 babd e641 debd cbad 0a3e
00000210: 2bac c4bd a272 1e3e 4c5c 01be d5cf 123e
00000220: 81b4 1abe e84d c33c 8aa1 193d e273 b6bd
00000230: 3f99 023e bc3a 683d 8331 113d bdb6 09be
00000240: a663 1abe dd1a 12be a0ec 333d 1034 a63d
00000250: 8d12 54bc 9029 033d e295 04be cea8 593d
00000260: 06b3 b5bd 6102 f13c 608d b8bc 62cd aebc
00000270: 6769 09be f439 833d 2a0e fbbd 2bdb 01be
00000280: e941 02bc b738 c23d 6e17 a33d 5270 4d3d
00000290: bf96 26bd d8b2 cb3b 5afd 5d3d fdbf 633c
000002a0: b320 033e 1a2e 46bd 5d96 78bd 8c9b a13d
000002b0: 7d4b 4a3d 1508 c53d 31a4 8f3c 2599 2c3c
000002c0: f59b c83d 51d0 f13c eb74 e23d f338 dd3d
000002d0: 2516 c93d f191 0dbe 2bde c3bd 2638 df3b
000002e0: 14e7 213e 10d2 6ebd 3048 d43d 0d15 ab3d
000002f0: 848f bd3d 4c80 95bd 0fda 973d ba97 583d
00000300: 621d 823d 6126 74bd e7c8 a43d cc2d 073e
00000310: 8136 7cbb b572 2fbd e742 db3d 8c55 013e
00000320: c32d 66bd 3afe 4cbd a261 dc3d c12c b73d
00000330: bd00 5b3c 758a 043e 323f 133d 7c59 da3d
00000340: b755 233e 72e4 343c eeb4 8d3d d11c be3d
00000350: ddef 023e d4c9 393d 5a53 4abd 8ddc e7ba
00000360: c0c6 203a 0441 5f3d 0724 89bd 5be3 08be
00000370: 18a3 5fbc 1526 7ebd 60a4 e73a e37a ce3d
00000380: d167 c43d 2fa1 8fbc f431 aebd 62b4 acbd
00000390: 1548 693d 94dd b2bd d566 7e3c 7f71 f93d
000003a0: 8aed ebbc 8d9b 6b3d d163 103e f135 9e3c
000003b0: 06d0 8e3d 4bfb e53d a654 d63d f3ba 86bd
000003c0: 2694 19bd 1a23 c2bd 14eb c43c e153 ab3d
000003d0: 5b97 353c 45cb 883d 699c 80bd 9218 923c
000003e0: ad22 ce3c 0ade bcbd ab18 d1bc 3a0c a2bc
000003f0: f86b 30bd f566 843d 4687 9bba ebdc 04bd
0.06779456 0.05437815 0.014103108 0.0047837896 0.13567258 0.07363185 0.07325578 0.019573243
0.064895965 -0.010671095 0.08788438 -0.051682517 -0.0049363114 0.07837787 -0.058164213 0.16002026
-0.032151777 0.077007174 0.06558952 0.10774292 -0.08566253 -0.009627046 0.09141019 0.069545485
0.018145617 0.10312046 0.0037829038 -0.074445404 0.049560476 0.04672077 0.015350061 0.07839945
-0.024767073 -0.08766786 -0.025687933 0.14552575 0.08375605 0.05088608 0.14871627 0.05687476
0.13460304 0.06556851 0.045993663 -0.0013521479 -0.045485366 0.09777806 0.115947746 -0.043547735
0.08948939 0.09398796 -0.07668309 -0.07972491 -0.11033664 -0.016751327 0.09341693 0.105909504
0.009035058 0.1421328 -0.03160538 -0.06763261 0.15135942 0.11670656 -0.048933975 -0.072181426
0.094495974 -0.079026684 -0.024035534 0.14142525 0.068003364 -0.009478895 0.11110071 -0.033540852
0.083392404 0.07520381 -0.040268455 0.09372232 0.1323512 0.13834941 0.060346212 0.0759872
0.11798105 -0.07926313 0.14664182 0.06244706 -0.10605134 0.017960655 0.14829285 -0.047949743
-0.044914998 0.12659985 -0.025765933 -0.0064091035 0.08329075 -0.0014295195 0.06815661 -0.046811663
-0.022682559 0.10085148 -0.052731313 -0.032828454 -0.115872934 0.11955061 -0.06967867 -0.013795013
0.09178397 0.08308391 0.11899485 0.10183008 0.07854931 -0.05260676 0.07973364 -0.08373586
-0.067508236 0.10348959 0.02907011 -0.0364819 -0.10265518 -0.05743482 0.06765327 -0.015994333
0.05165921 -0.094782755 -0.023307212 0.08754398 -0.077713475 0.063253514 -0.066333845 0.12129675
0.030010756 -0.09107883 -0.10852413 0.1354286 -0.09603151 0.15473416 -0.12632865 0.14337094
-0.1510792 0.02384086 0.03750757 -0.08908822 0.12753771 0.05669664 0.03544761 -0.13448615
-0.15077075 -0.1426806 0.043926835 0.08115399 -0.012943876 0.03202206 -0.12947801 0.0531395
-0.08872037 0.02942008 -0.02252835 -0.021338169 -0.13419114 0.06407538 -0.12258561 -0.12681262
-0.0079502845 0.09483474 0.07963453 0.050155945 -0.040671106 0.006216388 0.054196693 0.013900754
0.12805443 -0.04838381 -0.060690273 0.07890996 0.049388397 0.09620682 0.017534347 0.010534559
0.097953714 0.029518278 0.110574566 0.10801878 0.09818677 -0.13825203 -0.095638596 0.0068121133
0.15810806 -0.0583058 0.10365331 0.083536245 0.09255889 -0.07299861 0.07414638 0.052879073
0.063532606 -0.059606913 0.080461316 0.13201064 -0.0038484635 -0.042834003 0.1070612 0.1263029
-0.056195986 -0.050047137 0.107608095 0.08944083 0.013366875 0.12943442 0.03594894 0.10661599
0.15950666 0.011040794 0.06919275 0.0928284 0.12786813 0.045358494 -0.049395896 -0.0017689631
0.00061331317 0.054505363 -0.06696325 -0.13367979 -0.013649724 -0.062048037 0.0017672889 0.100820325
0.09590114 -0.017532913 -0.085056216 -0.08432843 0.05695351 -0.08733669 0.015527447 0.12179851
-0.02879979 0.05752139 0.14100577 0.01931283 0.06973271 0.11229571 0.10465364 -0.065786265
-0.0374948 -0.09479351 0.024037875 0.08365608 0.011083449 0.066793956 -0.06279833 0.017833982
0.02516302 -0.09222038 -0.025524458 -0.01978122 -0.043071717 0.0646495 -0.0011865876 -0.032437246

lstm.weight_ih_l1 f4 [256, 64]
00000000: 7d96 013d 8766 6b3d e150 a53d c2b8 0f3d
00000010: 0c46 86bd 67a1 6a3d b3b5 bbbd 7b15 14bd
00000020: 3ecd 9a3d b182 9abd bee5 353d cebe c7bd
00000030: be3e ea3d 6e9e 8abc c83a 8e3d 5774 693d
00000040: ba88 cebd 9f33 ab3d 9a09 743c 7d8f f4bc
00000050: 9e16 bfbd fe9f 903c 7be7 083d 9abc d73d
00000060: addd ba3d 6aab 953d 1234 3ebc 7739 e2bc
00000070: ec9c 10be d174 ae3d f1b8 bdbd 396c 183d
00000080: 58f6 9cbd 2676 b5bd c564 9c3d 3d65 a6bd
00000090: ee22 50bd aab3 c33b 4e57 8abd 3e57 c43d
000000a0: 49e7 a2bd 624f fdbd 2470 c4bd 0b6f 0b3e
000000b0: 0efb bebd 9757 c2bd 8ad7 d93d c458 d43c
000000c0: 31bd c83c 42b4 dcbb 35a9 123e b2e5 af3d
000000d0: f53a 6f3d cd9c a03d a3e6 f3bd 8227 193e
000000e0: 3674 a7bc 087b bebd dac6 1a3e 49c0 b73c
000000f0: af6e cf3d ed01 21bd 1a9e 0d3e 9562 f5bb
00000100: f1b5 0b3c 0412 bcbd 0189 d43d c965 0d3c
00000110: 1230 0fbe 0dda e63d a0d3 943d 08e5 7e3c
00000120: 9ac8 8c3d ef0a 9bbd aeea b83c 659d 00be
00000130: 9df1 343d 890d 903d 040e 82bd 088c 0cbc
00000140: f734 c13d 2af5 533d e310 323d c15d efbd
00000150: 0941 e93d d4e6 d93c f51d 643d 54f7 3cbc
00000160: 590b c43d f1ec 913d 970b c8bd 05bf 573d
00000170: d640 9fbd e3dc e5bd 448a cb3d eec6 533c
00000180: 0aba 2d3d 30ce b3bd a8cf f03d 7a42 a33b
00000190: feb5 0a3e a9b4 3c3d e65b ebbd d48e a3bc
000001a0: 24dc 8f3b d65b 2bbc beff 01bd ea82 adbc
000001b0: f2dd 8b3d ca7e db3d a76b 6a3d 854b 7cbd
000001c0: f7b8 0c3d 3eb4 bcbd 8899 12bc d951 ce3d
000001d0: 3019 bb3d 42c9 82bc 1b4f b7bc 016d 0cbd
000001e0: 4818 f23d e15f 053d 3a89 913c 0d1c dabc
000001f0: 15a7 dd3d b678 6dbd 74bc c03d 7c0c 10be
00000200: 5a93 733d 76f9 b13d c090 96bc 3003 04bd
00000210: 3de6 8fbd 7eba f5bc caa8 4b3b f7d5 d73d
00000220: 876f 08be 8097 ff3d 6d94 ea3c 47c1 9cbc
00000230: 91d3 183d 3ea9 943d 5e31 143e 4aaf 84bd
00000240: 57ba 1fbe 4154 ac3d b7ef 1f3d b506 27bd
00000250: 07d8 a3bd 25a2 c03c 0a12 4dbc f5a2 c5ba
00000260: 3d72 af3d 20a3 833a 6e03 0bbe 0b80 ba3d
00000270: 2993 10be eca3 803d 39a3 f43d eca4 efbd
00000280: 9a53 bdbd 32ed edbc 2151 e03d e9e3 4bbd
00000290: 0093 0c3c c340 063e d411 1bbe 72fa 373d
000002a0: 6771 303c c0c7 4cbd 68be 7abc 71f0 4bbd
000002b0: 2d05 e73b 110f 07be d81e 063e 4576 fa3c
000002c0: f86a f4bd 1da2 a3bd 4afc d83c 4e72 0c3e
000002d0: 426c 4dbd 524b b2bd f338 00bd ae0e 113e
000002e0: 5468 9e3d ec73 96bd a392 b03c ae3f babd
000002f0: e6b5 bc3d 8a0a ebbb 9fa1 603d 670a aebc
00000300: bafe f83c 3093 263d 2cd0 b4bd 767b 8e3d
00000310: 1ea1 91bd a161 6b3d 9cb3 90bc e60b dc3d
00000320: 10c2 9436 37ee a03d ce65 073e dee1 86bd
00000330: 3ee5 b0bd d5db c4bd 2c2d f43d a43d d4bc
00000340: f37c 14bd bf35 1fbd 30f2 f8bd c4f2 943d
00000350: ece4 2ebd 22d4 f13c c38b 9bbd 73dc 2a3d
00000360: 3708 2dbd a674 573d 044f dcbc 582a 8abb
00000370: 75c4 52bd ec0f 203b d4de bebd cd71 d2bd
00000380: 9339 a23d 488a 48bd bbea fc3d 75a9 e83d
00000390: 3090 093e 844d 7b3d caa4 ca3d d23e ee3c
000003a0: fddf b0bd 7117 353c 9424 07bd 6bf1 5abd
000003b0: 5ec1 c53d 073a 37bd 28e2 cabd a914 f73c
000003c0: 4dbb 5cbd fb3d 3fbd f239 0c3d b248 a63d
000003d0: f7b7 e4bc f5da 81bd 37fd 983d 8e33 bbbc
000003e0: 6b69 71bd 9524 533d 929d 7d3d f8f8 ae3d
000003f0: 684a b2bd 9eac 8abd a6ba 6dbc 451c eb3b
0.031637657 0.057470825 0.08072067 0.03508831 -0.06556329 0.05728283 -0.09165516 -0.036153298
0.07558678 -0.07544459 0.044408552 -0.0975319 0.114377484 -0.016921248 0.069448054 0.056995716
-0.10084672 0.08359455 0.014894867 -0.029853577 -0.09330486 0.017654415 0.033423882 0.1053402
0.091243125 0.07308085 -0.011609094 -0.027615292 -0.14122361 0.08518375 -0.092637904 0.037212584
-0.07664174 -0.08860426 0.07636408 -0.081247784 -0.05081456 0.0059723454 -0.06754933 0.095869526
-0.079542704 -0.12368657 -0.095917016 0.13616578 -0.09325229 -0.09489363 0.10636814 0.025921233
0.024504276 -0.0067353556 0.1432236 0.08588733 0.058405835 0.078424074 -0.11909225 0.14956477
-0.020441156 -0.0930081 0.15114918 0.022430556 0.10128533 -0.039308477 0.13829842 -0.0074885585
0.008527265 -0.09183124 0.10377694 0.0086302245 -0.13983181 0.11272059 0.07266927 0.015557535
0.06874199 -0.07570445 0.022572841 -0.12560041 0.044175733 0.070338316 -0.063503295 -0.008578308
0.0943393 0.05174748 0.043473136 -0.11687804 0.113893576 0.026599325 0.05569263 -0.011533577
0.09572477 0.07125271 -0.097678356 0.052672405 -0.07776038 -0.112237714 0.099384815 0.0129258465
0.04241375 -0.087795615 0.11758357 0.00498229 0.13545987 0.04607073 -0.114921376 -0.019965567
0.0043902565 -0.010458907 -0.031738035 -0.021180589 0.06829442 0.107175425 0.05723157 -0.06159546
0.034356084 -0.09214066 -0.0089477375 0.10074205 0.091356635 -0.015965108 -0.022376588 -0.03428364
0.118210375 0.03256214 0.01776563 -0.026624704 0.10822884 -0.057976447 0.094109446 -0.14067262
0.059466697 0.08690159 -0.018379569 -0.032229602 -0.07026336 -0.029996153 0.0031075948 0.105388574
-0.13323794 0.12480068 0.028635228 -0.01913513 0.03731114 0.07258843 0.14471957 -0.06478746
-0.15598427 0.08414508 0.03904697 -0.04077788 -0.08000188 0.023514817 -0.012516508 -0.0015078472
0.08566711 0.0010043122 -0.13575527 0.091064535 -0.14118637 0.062812656 0.11945195 -0.11701378
-0.09244461 -0.029043768 0.10952974 -0.0497779 0.008579969 0.13110642 -0.1514352 0.044916578
0.010769225 -0.049995184 -0.015304185 -0.04978985 0.0070501775 -0.13189341 0.13097703 0.030573973
-0.11934465 -0.07989905 0.026487488 0.13715479 -0.05015207 -0.087057725 -0.03130431 0.14165756
0.07734743 -0.07346329 0.021554297 -0.09094177 0.09214382 -0.007172887 0.054841634 -0.021245195
0.0303949 0.040667713 -0.08828768 0.06957142 -0.07110809 0.057466153 -0.01766377 0.10744457
4.4333356e-06 0.07857936 0.13222429 -0.065860495 -0.086374745 -0.09612242 0.11922678 -0.025908299
-0.036251973 -0.038869616 -0.121555686 0.07272866 -0.042698786 0.029520098 -0.07595017 0.041714143
-0.042244162 0.05260148 -0.026893146 -0.0042164735 -0.051456887 0.0024423553 -0.09319845 -0.10275612
0.07921138 -0.04896 0.12349459 0.11360446 0.1343391 0.06135322 0.09894712 0.02908269
-0.086364724 0.011052952 -0.032993868 -0.05345289 0.096560225 -0.044733074 -0.09906417 0.030161219
-0.05388956 -0.04668997 0.03423495 0.08119334 -0.027919753 -0.06340591 0.07470172 -0.022851732
-0.058938425 0.05154856 0.06191785 0.08543581 -0.08705598 -0.06771205 -0.0145098325 0.007175001

lstm.weight_hh_l1 f4 [256, 64]
00000000: c521 9bbd b4ac f83c bff4 9cbc 2e30 81bd
00000010: ea6f 933c 7419 8cbb d87d cf3d 0193 5dbd
00000020: d260 15be 590d 81bd d8a4 a53d 9de5 943d
00000030: cdf9 013e 31fd 203d 72e0 0f3e bd04 0e3e
00000040: 0c38 0dbe 8638 113d 9c8c 8e3d c1b6 83bd
00000050: 8777 1f3d 586d e93b dcb1 23bd 3d3f 5abd
00000060: bee0 ec3d c1fa 9cbd 4ee2 64bc aee2 79bc
00000070: 788c e43d 5c49 2fbd 00e2 a13c e585 1b3e
00000080: 8e15 25bd 744f 133d e29e 2a3d d0f5 7cbd
00000090: a99f 93bd 9390 f63c fa53 cb3d 5456 413c
000000a0: 131c d23d 217b 10be ffcc 1f3e 5e87 ed3d
000000b0: 50f6 0abe 09cd 34bb ae1e b03d 66fe 04be
000000c0: 7d70 083e 2981 00be 6382 10be be30 123e
000000d0: 04ea b33b 3dfd 81bd 630f a13d 5ab8 163e
000000e0: ee88 acbd 5707 ad3d 3431 04be 0f83 fd3c
000000f0: 51cc 8a3d 84fc 3cbc 8b06 8abd 9fb0 713d
00000100: a268 2b3d 5d99 aebd 2b7a 133e e35a c0bd
00000110: 3a69 e33d 27f2 87bd e7aa e83d 1fc0 8f3d
00000120: c810 593d 9425 d9bc da46 a0bc a88b bd3d
00000130: 9a72 173d b307 22bd 178d 013e 6a30 dabd
00000140: 9095 0b3d 5e22 13bd 7dc5 663d 8d3a e93d
00000150: f777 76bd 76c3 ccbd d751 0f3e 3645 c73d
00000160: f904 c53d 4856 56bb dbd2 9b3d c475 8dbd
00000170: d44b ef3c dfda c9bd ff06 a1bd 5785 8abc
00000180: 4807 d73d f03d a2bd cf39 65bd 2799 09be
00000190: dd84 05be c136 0c3e 85a8 a23d 5150 b03d
000001a0: 486a 6f3d 9488 8e3c 0bfe ed3d 28fc 4cbd
000001b0: 94d4 473d a9b6 f1bd df5b 143e 8d7f a8bd
000001c0: d886 f33d 2de1 0a3d 6e26 12bc 2204 71bd
000001d0: 5d52 b3bd 84d3 07be fe07 c33d 85d2 e13d
000001e0: d069 ae3c cc37 a2bc 4051 b2bd 8955 0dbe
000001f0: 5885 723d 9fb2 083e 3029 3bbd 9745 01be
00000200: 8771 0fbe ff67 c5bd 975c a43c 66ea 693d
00000210: 182e 0b3e 4892 c23d dc53 303c 9bb3 81bc
00000220: dbdf babd ea6f b53c 79d7 b63c 8e72 ff3c
00000230: aaca 783d abe6 a1bd 1208 ef3d 0819 6bbd
00000240: b6ad 19be 8c06 703d 8d07 0c3e 450a c4bc
00000250: b0e6 983d ad96 8fbb 5337 053d c799 07be
00000260: 8437 23bd 76af e8bd 759a f53d 1fa6 993d
00000270: 5724 c33d e60c a43d 0429 4c3d 8c32 3f3d
00000280: 6a44 5f3d 6678 e8bd 77cd 5dbd fbce 423d
00000290: 9f9a 59bc 2b17 5d3d 5dcf de3d cdc6 78bd
000002a0: 1149 763d 7f74 203c 5fb8 64ba 85e9 04bd
000002b0: 806a 2f3c a6ab 73bd 3129 ce3c d6a7 f8bd
000002c0: bbff 1abc 7212 09be c842 76bd 8e89 73bd
000002d0: c1cd 0e3e 2d49 863c 93c9 aabd 2f28 a6bd
000002e0: 975f f73c 6b83 8e3d 6350 21bd 814a 7d3d
000002f0: 6161 c9bd 30f1 6ebd ebd8 2d3d 7af3 91bd
00000300: 6d24 f2bd d034 edbd 04a7 00bc 0f77 cfbd
00000310: 3b08 f03d 21e3 68bd ab40 28bc 121e aa3b
00000320: 779d d6bc 4dae 293d a9ec cabd afab 8fbd
00000330: 8aac 293d fe72 b33c a5e5 ed3c 21e2 c53d
00000340: 923e fabd 0cec 77bd 8fa7 6b3d bbeb f13d
00000350: cdc5 abbd c129 af3d 0b49 ad3d cdca e93c
00000360: eaa3 8ebd 02e7 523b ca22 08bd fe35 0fbd
00000370: d727 3b3d f40d 10be 2b24 ecbc 39c2 3bbd
00000380: c766 1fbd 6dbb 0dbe 0a91 8ebc 52d6 dbbd
00000390: 3ed5 af3d f1cf e23d 9f35 483d ccf8 853c
000003a0: c267 fabd 9f02 c53d 2301 0b3e 13de 063c
000003b0: 6c17 74bd 5181 0abe 45ac a93d ee88 fdbc
000003c0: ad9c ac3d a567 973d 4c3c 0cbe 059c 133e
000003d0: cc1b 0f3e c717 6e3d 348a b03a d0d4 0c3d
000003e0: 900c 50ba 59ea 7d3d 2e73 653d 026d 04be
000003f0: d32f 41bd 06dd 4cbd 81d5 283d 9d4c 673c
-0.075748004 0.030355789 -0.019159673 -0.06308018 0.0179977 -0.004275495 0.10131425 -0.054095272
-0.14587715 -0.06301374 0.08088082 0.07270358 0.12692948 0.039303962 0.14050463 0.13868995
-0.13790911 0.035454296 0.06960413 -0.06431342 0.03893235 0.0071236305 -0.03996454 -0.053282965
0.11566304 -0.07665015 -0.013969971 -0.015251799 0.11159605 -0.04279457 0.019761086 0.15187795
-0.04030376 0.035964444 0.04165543 -0.061757863 -0.07208187 0.030098235 0.09928127 0.011800367
0.10259261 -0.1410947 0.15605544 0.11598085 -0.13570523 -0.002758803 0.08599602 -0.1298767
0.13324161 -0.1254927 -0.14112239 0.14276406 0.0054905433 -0.063471295 0.07864263 0.14718762
-0.08424555 0.084486656 -0.12909395 0.030946283 0.067772515 -0.011534814 -0.06739529 0.05900633
0.041847833 -0.085253455 0.14402072 -0.09392335 0.11104055 -0.06637984 0.11360722 0.07019066
0.05299452 -0.026507176 -0.019565035 0.09255153 0.036974527 -0.039558124 0.12651478 -0.106537655
0.03407818 -0.035921447 0.056340683 0.11388121 -0.060173 -0.09998219 0.13996063 0.09729998
0.09620089 -0.0032705236 0.07608577 -0.06907228 0.029210962 -0.098561995 -0.078626625 -0.016909285
0.10499436 -0.0792197 -0.055963334 -0.13437329 -0.13038965 0.13692762 0.07942299 0.08609069
0.058450967 0.01739911 0.116207205 -0.050045162 0.048786715 -0.11802418 0.14488171 -0.082274534
0.11890954 0.03390615 -0.008920295 -0.058841832 -0.08755944 -0.1326428 0.09523009 0.110264815
0.02129069 -0.019801997 -0.087069035 -0.1380216 0.059209198 0.13349389 -0.045693576 -0.12624203
-0.14008151 -0.09638976 0.020063682 0.057108305 0.13591802 0.09500557 0.010762181 -0.015832713
-0.09124728 0.022148091 0.022319542 0.031182554 0.06074015 -0.079053245 0.11671461 -0.05739692
-0.15007672 0.058599994 0.13674755 -0.023930678 0.07465875 -0.0043819756 0.032523464 -0.13242255
-0.039847866 -0.113615915 0.11992351 0.07502388 0.09528416 0.08010273 0.049843803 0.046679065
0.054508604 -0.11351089 -0.054151025 0.047560673 -0.013281493 0.053977173 0.10879395 -0.060736466
0.060128275 0.0097934 -0.0008724983 -0.032449264 0.010706544 -0.05948987 0.025166126 -0.12141387
-0.009460385 -0.13385943 -0.06012228 -0.059457354 0.13945676 0.016392315 -0.083392285 -0.08113133
0.030196948 0.0695866 -0.039383303 0.06183863 -0.09833027 -0.058335483 0.042443197 -0.071265176
-0.11823354 -0.11582339 -0.00785232 -0.101301305 0.1172032 -0.056857232 -0.010269324 0.005191573
-0.026198132 0.04142599 -0.099084206 -0.07015168 0.04142431 0.021905418 0.029040167 0.09662271
-0.122189656 -0.060527846 0.057532843 0.1181254 -0.08387337 0.08552886 0.084611975 0.028539086
-0.06964858 0.0032181148 -0.033236302 -0.0349636 0.04569229 -0.14067823 -0.02882584 -0.045839522
-0.038916375 -0.13841029 -0.017403144 -0.10734238 0.085855946 0.11074818 0.048879262 0.016353987
-0.122268215 0.096196406 0.13574652 0.008231658 -0.05959265 -0.13525893 0.08284811 -0.030949082
0.08428321 0.073928155 -0.13694876 0.14414985 0.13975447 0.058128145 0.0013468922 0.03438264
-0.0007936442 0.06199107 0.056018047 -0.12932208 -0.04716475 -0.050015472 0.04121924 0.014117387

lstm.bias_ih_l1 f4 [256]
00000000: 40b4 b23d c61a 66bd 225b 183e 68c0 92bd
00000010: a20e 8bbd db37 5a3c 8e62 48bc 127b c03d
00000020: eb94 54bd e492 a7bc e3a7 dd3d 324c 583d
00000030: 34ae b53d 9334 9ebd 57a5 453d f9c4 f6bc
00000040: 1cc1 d53d 8a13 71bc d867 ea3d 2218 c83c
00000050: c487 0d3e 413f bdbd 3302 4c3d 77c7 7fbd
00000060: 24ab 233b 95a8 85bd b944 ea3d 6dda a73c
00000070: cbdb 273c cc12 5fbc 2fe7 65bd 0aa0 8b3d
00000080: 2ef2 c0bd 1824 c63d 1273 b9bc 4875 433b
00000090: 9c24 ea3d 47ef a7bd ba17 fcbd f6fd d23d
000000a0: 0062 073e 4e1a f63c 5866 1d3e c2f3 103d
000000b0: 415f 8b3d 8f36 853d f118 f83d f6c7 223b
000000c0: ba70 87bd 0289 233c 67ff c4bc ca5b c73c
000000d0: adac f93d 51cb ba3d 152e adbd 103d 2f3c
000000e0: 924c c1bd bdf6 d8bc 9c21 92bd 02f8 c83d
000000f0: d445 02bd 7121 8f3d 4715 dabd 5efb 043e
00000100: f89a c73c 6826 923d 2235 623c 603d 85bc
00000110: df34 523b ebaa 183d 7aa2 81bd 7447 86bb
00000120: 9a8d a13d d39f bb3c 40ab 143d 109e 323d
00000130: 7188 333d a810 d5bc 7bb9 003e ddc5 d0bd
00000140: 5900 7e3d d19c b83d f094 7ebd 6c65 85bd
00000150: d117 a3bd ea80 0c3d fa93 0b3c b0ac f33d
00000160: b0bc 0c3e d52c 883d da60 933b bc80 b3bd
00000170: 86a0 1a3e b645 d03d 9838 babd 595e 073d
00000180: b11e da3d 9efe 2c3d e365 e93d a523 8abd
00000190: 485b f33d cd3b 8cbb c19d e6bd 6ce6 bd3d
000001a0: 7610 b9bd 5426 4c3d cc2c a43d 9490 ce3d
000001b0: 541e 57bd 7f1d 86bc e71c e3bb 3914 d73d
000001c0: ad41 0f3e 8218 c13c 5d9a 0e3e 5f0a c13d
000001d0: 525d 2e3d cb08 7b3d 4b28 4c3b 9d47 c13d
000001e0: 8c94 443d f930 283d 351c 37bd b9cf 0f3e
000001f0: aabf 9d3d 30af 903c bb2d a53d 6772 cdbc
00000200: cee9 cbbd 1cf0 b6bd 0a7c 433d 4d95 db3d
00000210: 12b7 ed3d 0c9d 023e 8dcb f93d a6fd 313b
00000220: 8595 85bd 9a7c 1a3e d367 f33c 5948 e4bb
00000230: 6efd a3bd 50d5 61bd d9ab 053e dfc7 863d
00000240: 3bf7 56bc fe88 4fbd 1e32 89bd fbce 08bd
00000250: 5f15 00be 0e13 8bbd 4b52 633d 38fa b7bd
00000260: c46b c93b ffe7 00be ceb6 74bd 8d73 e33d
00000270: 2664 613c b51b 33bd 0ccd 94bc ed02 123e
00000280: 3dd5 03be a611 f2bd bfb5 33bd 7664 95bd
00000290: 755f 11be e715 ff3d 7e7f dabd 6a32 1bbe
000002a0: 456e ca3c c16e 103d fa8f ec3c 49a8 013e
000002b0: e5b4 ffbd 99ac e1bd f8e7 41bd c9b6 94bd
000002c0: d192 d93c 4552 ccbd 0315 c9bd d3f4 763d
000002d0: 3eda 86bd 75b3 403c 38ef 343c e87a 1e3e
000002e0: e7a4 a93d c3a0 f23d e385 733d 77e0 bdbd
000002f0: 23eb fcbd abe0 8abd ef78 e4bc 001e 483d
00000300: a746 d0b9 6d68 cbbd 5b4a cc3d dc1c 80bd
00000310: ffee 983d 2aff 9e3c 1396 643d 9123 32bd
00000320: 691f ab3d 148e 13bd c1fb 7ebd e0ac a93d
00000330: adad ae3c b4a5 c93d aa09 08bd a379 0b3d
00000340: 464f 7abd ab18 cbbc 741d 25bd 4301 613d
00000350: 86e8 1a3d 2260 94bb 0547 82bd 97dc 933d
00000360: 8f8a 103d ec9c 11bb 1d09 c93d f03d 2f3d
00000370: 54b6 debc 1971 cb3d 43df 0b3e a89d 26bd
00000380: b093 943d c974 bb3d 28af 583c 2720 91bd
00000390: 8c0e 38bd 4e91 a43d 2e53 733d d46c 0a3e
000003a0: 22db 41bd 24a5 223e 9f0f df3b 1d5f dd3c
000003b0: 9b2d 73bd a866 e03c 8742 853d 81d3 45bd
000003c0: ece1 983d 1784 0f3e 5209 f43d 3ca2 7dbd
000003d0: 2e14 f33d d783 333d fea1 8dbc d519 093d
000003e0: 3bdc 3d3d afd4 d7bc 9eac 5cbd c936 0bbd
000003f0: 47f3 a3bd 1547 3cbc 6962 83bc eff6 273d
0.08725786 -0.056177877 0.14878514 -0.07165605 -0.067899 0.013318981 -0.0122305285 0.09398474
-0.05189983 -0.020455785 0.108230375 0.05280704 0.08871117 -0.077248715 0.048253383 -0.03012322
0.10437223 -0.014714131 0.11445588 0.02442557 0.13821322 -0.0924058 0.049806785 -0.062446084
0.0024973834 -0.06526295 0.11438889 0.020489896 0.010245274 -0.013615321 -0.056128677 0.068176344
-0.09421192 0.09674853 -0.022637878 0.0029824544 0.11432764 -0.081999354 -0.12309213 0.103023455
0.13220978 0.03004184 0.15371072 0.035388716 0.068052776 0.06504547 0.12114132 0.0024838424
-0.06613298 0.009981396 -0.024047567 0.02433576 0.121911384 0.09120811 -0.08456055 0.010695711
-0.09438433 -0.026484841 -0.07135317 0.09812929 -0.031804875 0.069888 -0.106485896 0.12986514
0.024365887 0.07136232 0.013806613 -0.016264617 0.003207497 0.037272375 -0.06329818 -0.0040978733
0.078883365 0.022903359 0.03629613 0.04360777 0.043831293 -0.026008919 0.12570755 -0.101939894
0.06201205 0.09014285 -0.062153757 -0.06513485 -0.07963527 0.03430263 0.008519167 0.11898172
0.13743854 0.06649176 0.0044976296 -0.087647885 0.15100297 0.10169546 -0.09092826 0.03304896
0.10650385 0.04223501 0.113963865 -0.0674508 0.11882645 -0.0042795897 -0.11260558 0.09272465
-0.09036343 0.04984124 0.08016357 0.1008617 -0.052519158 -0.016371487 -0.0069309357 0.10501904
0.13989897 0.023571257 0.13926072 0.09425806 0.042569466 0.061287683 0.0031151946 0.09437487
0.047993228 0.04106233 -0.044704635 0.14044084 0.07702573 0.01766166 0.08065363 -0.025078965
-0.09956704 -0.08932516 0.047725715 0.10721836 0.116071835 0.12755221 0.12197027 0.0027159243
-0.06522659 0.15086594 0.029712593 -0.0069666323 -0.08007322 -0.05513507 0.13053836 0.06581091
-0.013120468 -0.050667755 -0.06699012 -0.033400517 -0.12508152 -0.06790744 0.055498403 -0.08983272
0.00614688 -0.125885 -0.05974465 0.11106024 0.013756787 -0.043727595 -0.01816418 0.14258929
-0.12874313 -0.118197724 -0.0438745 -0.07294552 -0.1419657 0.124553494 -0.106688485 -0.1515595
0.024710784 0.035261873 0.028877247 0.12661852 -0.12485675 -0.110192485 -0.047340363 -0.07261426
0.026559265 -0.09976629 -0.09818461 0.060292076 -0.06584595 0.011761536 0.011043362 0.15476573
0.08283406 0.11847069 0.059453856 -0.09271329 -0.12349536 -0.06781133 -0.027889697 0.048856735
-0.00039725492 -0.09932027 0.0997512 -0.062555045 0.0746746 0.019408781 0.055807184 -0.04349095
0.083556004 -0.036024168 -0.06225181 0.082849264 0.02132305 0.098460585 -0.03321234 0.03405155
-0.061110757 -0.024792036 -0.04031129 0.054932844 0.037819408 -0.0045280615 -0.06361202 0.072198085
0.03528839 -0.0022218777 0.09816191 0.042783678 -0.02718655 0.09933681 0.13659386 -0.040677696
0.07254732 0.091531344 0.013225354 -0.07086211 -0.044935748 0.08035527 0.0594055 0.13518077
-0.047328122 0.15883309 0.006807282 0.027022893 -0.059369665 0.0273927 0.0650683 -0.04829741
0.07464966 0.14015232 0.1191584 -0.061922297 0.11869083 0.043826904 -0.017289158 0.0334719
0.046352606 -0.026346533 -0.053875558 -0.033987794 -0.08005386 -0.011491557 -0.016038137 0.04100698

lstm.bias_hh_l1 f4 [256]
00000000: 7b8e 46bd b92d 083d eaca 29bd 4c98 ed3d
00000010: 1cdb 1e3e d55e ea3b 9863 023e 8d8e a03c
00000020: 1ef7 9cbd 18ed 4abc bf17 a4bd 86b4 263d
00000030: a46f b73d f72a 8dbd 5686 f73d 6595 923d
00000040: 253b a83d aac2 383c 3500 9a3d 6b15 573d
00000050: 7d0b ea3d 13c3 3fbc e95c ca3d 06fe 8b3d
00000060: 45e4 e93c 1930 f13d 2bff 48bd e5bf 1b3e
00000070: 47d9 d4ba d3e4 7d3a 72c5 d13d 391b 0dbd
00000080: 5af0 87bd 62a8 1c3c f8cc 093d cc14 a9bd
00000090: 942b b5bc 2bdd bcbd 4d3c 1dbd 7d05 40bc
000000a0: fd3f 173d 43a1 963d d750 b23d 7f83 f23b
000000b0: 400e 9bbd bfd9 163d 3b4f 1d3e c6ff d93d
000000c0: 265c ee3d 0367 cd3a 2ada 603c dae0 b23c
000000d0: 5e26 8f3d ab81 dc3d c294 f5bb b743 54bd
000000e0: 807a 8f3c b843 f53d aba1 bd3d c46d babd
000000f0: 39a6 d23c 334c 6d3b 60ec 96bd 791f 083e
00000100: 030b 0a3d 8575 103e 324b 6abc 4385 fa3c
00000110: 8721 503d 8a59 b6bc 433f 713d c4f3 10bd
00000120: fdd0 aabd c823 0c3d 95e2 b2bd a013 013e
00000130: e929 c3bc b18c af3d 2d72 46bd 0b64 2a3c
00000140: dcea 46bc 92ae af3b 9590 5f3d 2c5f ce3d
00000150: 6309 273d 3492 6d3d e9ec e93d 1ba1 01be
00000160: c34c 8ebd ca92 6fbd 2b71 9abd 0e72 b33d
00000170: 5c82 8b3c c46c 8cbd d7f7 603d 7106 5abb
00000180: 3e14 193c 9a49 163e 858a 653d 0f86 6e3d
00000190: b110 3a3d 9079 96bd 4c69 3a3d bde2 363d
000001a0: c48b 94bd b8d6 6d3d 5c95 07bd 23ab 6bba
000001b0: b605 0e3e 8da1 0b3d c368 3dbc 84b3 b33d
000001c0: 6e39 0a3d 1df2 aa3d 3400 4d3d 002d 13bd
000001d0: bfb5 91bd 6fee 8dbd 92ce 4e3d 0ddd aebd
000001e0: faf4 fd3d 11d8 843d 8b06 c93d fc12 5f3d
000001f0: 9829 153e 1ce4 fb3d 3c45 3a3d b26e 1f3e
00000200: 9b77 cfbb ac41 6d3c 5f3f f03c 6f82 513d
00000210: 0524 5a3d 8476 0b3d bf14 293d 04d5 083e
00000220: 83d4 9cbc 75e2 54bd 37bb 60bb 3d2a b8bd
00000230: 0223 283d 6a30 0fbe adbe 693d 0000 fb3b
00000240: ed6d b2bd 9e89 193d b2b7 d53d 8b24 8f3d
00000250: 8b05 ddbd e7a0 013e dc5f a53d bbd7 5dbd
00000260: cd52 063e 1331 ad3d bb98 8c3d e2e0 c1bc
00000270: 6ccf a93d 8f33 92bd 3702 87bd 37cc 25bc
00000280: c780 ac3c 9f53 16be 6d4c 8bbd 2eee b9bd
00000290: 1500 f53c 9146 a1bd 16a8 493c 314e f8bd
000002a0: f339 843d 4c06 90bd f5bd fe3d a1d5 993d
000002b0: 9e9d 08be 055b c3bd 06c8 103e 399d a2bd
000002c0: 3db3 203e 073b 74bd 087c 1bbd ad3b ac3d
000002d0: f183 093e 3fb6 a1bd d34e f5bc 33bc c83c
000002e0: 9574 f9bd 2a5b 0a3e 7c39 bbbd 23ca c5bd
000002f0: 0c73 3bbd a78e a33d 7052 00bd 0f9e 07be
00000300: ebd0 a93d 8fa3 c63b 36f9 173e 0a49 6e3c
00000310: ac9c 573d 5491 4f3d db86 0cbd 7ac9 153e
00000320: ac73 6a3d bb9f 1d3e 2762 033e 20fc 033e
00000330: c4b9 823d 9893 b4bd 5ae1 d5b9 333b 163e
00000340: 0592 d3bc 9b42 e73c 6981 723a af95 323d
00000350: 7313 7b3d efb1 003d cc1c 4a3d a727 913d
00000360: b283 9a3d 31bd 59bd 3322 51bd 9a81 34bd
00000370: 7b0f 903d 6f83 7a3b bca3 ba3c 51ce 8e3d
00000380: 312c 9bba 2990 233e f241 5b3d a5ca a3bd
00000390: 1860 b33d a088 903d 41cb a13d a999 3e3c
000003a0: 0e71 c53d bbb1 93bd cb1a 30bd d4da d23d
000003b0: 352f 113c 0809 b63c 970b 90bb 6463 9ebd
000003c0: 1082 cabc 33d5 9f3c fe5e 243e aa9b 87bd
000003d0: 15c4 bc3c c630 063e 264f ce3d d084 063e
000003e0: 7837 b4bd 472f 943d 9449 8d3d 4406 983d
000003f0: 7fd3 cc3b 4770 0a3e 613d 12bd 09e9 0f3e
-0.048475724 0.03324673 -0.04145328 0.11601314 0.15513271 0.007152418 0.12733305 0.019599224
-0.07664321 -0.012385629 -0.08012342 0.040699504 0.08956841 -0.068929605 0.120861694 0.07157401
0.08214406 0.01127688 0.07519571 0.05251066 0.114279725 -0.011704224 0.098810025 0.068355605
0.02855123 0.11776752 -0.049071472 0.1520992 -0.001623907 0.00096852815 0.10242738 -0.03444979
-0.0663764 0.00956163 0.03364274 -0.0825592 -0.022115506 -0.09221872 -0.038387585 -0.0117200585
0.03692626 0.07354977 0.08706825 0.0074009295 -0.07571077 0.036828753 0.15362255 0.10644488
0.1163867 0.0015670959 0.013723889 0.021835733 0.0698974 0.1076692 -0.00749454 -0.05182239
0.017514467 0.11975807 0.09259351 -0.091029674 0.025714027 0.0036208748 -0.07369304 0.13293256
0.033701908 0.1410733 -0.0143001545 0.030581122 0.050813224 -0.022259492 0.05889822 -0.035388723
-0.083406426 0.03421381 -0.08734623 0.12605143 -0.023823695 0.08571757 -0.04844873 0.010399829
-0.012140956 0.0053613866 0.054581244 0.10076746 0.040780436 0.05800076 0.1142214 -0.12659113
-0.06948235 -0.0584896 -0.07541116 0.087619886 0.017029934 -0.06856683 0.05492386 -0.0033268
0.009343205 0.14676514 0.056040306 0.058233317 0.045426074 -0.07347405 0.045510575 0.04464983
-0.07253221 0.0580661 -0.033101425 -0.000899004 0.13869366 0.034089614 -0.011560622 0.08774474
0.033746175 0.08346961 0.05004902 -0.035931587 -0.071147434 -0.06930243 0.05048997 -0.08538256
0.12400241 0.06486524 0.09815701 0.054461464 0.14566648 0.12299368 0.045476183 0.1556957
-0.0063313968 0.014480989 0.029327093 0.05114978 0.053257007 0.034048572 0.04127955 0.13362509
-0.019144302 -0.05197378 -0.0034291276 -0.08992431 0.04104901 -0.13983312 0.05706661 0.007659912
-0.08712373 0.037484758 0.10435428 0.06989392 -0.10792073 0.12659036 0.08074924 -0.054160815
0.13117523 0.08456626 0.068650685 -0.023666803 0.08291516 -0.0713874 -0.06592219 -0.010119489
0.0210575 -0.14680336 -0.068016864 -0.09078632 0.029907266 -0.078747876 0.012308141 -0.12124289
0.064563654 -0.07032451 0.12438575 0.075114496 -0.13341376 -0.09538845 0.14138803 -0.07940144
0.15693374 -0.059626605 -0.037960082 0.0840982 0.13429238 -0.07896089 -0.029944813 0.024503803
-0.121804394 0.13511339 -0.09141824 -0.09657695 -0.045764014 0.07986193 -0.03132862 -0.13243888
0.08291801 0.006061978 0.1484116 0.014543781 0.05263965 0.050675705 -0.034308296 0.14627638
0.05723922 0.15392964 0.12830411 0.12889147 0.06383088 -0.08817214 -0.00040794426 0.1467102
-0.025826463 0.028230002 0.0009250851 0.04359978 0.061297845 0.03141969 0.04934387 0.07087641
0.0754465 -0.053158943 -0.051058006 -0.04406891 0.07034203 0.0038225313 0.022783153 0.069729455
-0.0011838732 0.15972961 0.053529687 -0.07997636 0.08758563 0.07057309 0.07900096 0.011633315
0.09640704 -0.07211634 -0.0429943 0.102956444 0.008861353 0.022221103 -0.004395913 -0.07733801
-0.024720222 0.019510841 0.16051862 -0.066214874 0.023042718 0.13104543 0.1007369 0.13136601
-0.08799642 0.0723558 0.068987995 0.0742307 0.0062507982 0.13519393 -0.035703067 0.1405374
